price_predictor_nn.pth (torch, 15364 bytes, 7 tensors)

layer1.weight f4 [64, 5]
0	0xbe91543b	-0.28384575
1	0xbdd019e1	-0.10161186
2	0x3eec104d	0.46106187
3	0x3ead90fa	0.3389967
4	0x3ee36d55	0.4441935
5	0xbebb4fc9	-0.3658431
6	0x3dfa0258	0.12207478
7	0xbe95edd8	-0.29283023
8	0x3ba18b40	0.00492993
9	0xbe4031e2	-0.18769029
10	0x3dd9e2b7	0.106389455
11	0xbda7641c	-0.08173391
12	0x3ec24af0	0.37947798
13	0x3ea203b2	0.31643444
14	0xbebc0f87	-0.36730596
15	0xbdef3e4c	-0.11681804
16	0x3ea6c5df	0.3257284
17	0xbeac9282	-0.33705527
18	0xbed12fa5	-0.40856662
19	0x3e80252a	0.25028354
20	0xbed1c1c8	-0.40968156
21	0xbe5e6528	-0.21718276
22	0xbee3c750	-0.44488
23	0x3e009ea8	0.12560523
24	0x3d361a90	0.044458926
25	0x3dc62990	0.09675896
26	0xbecef874	-0.4042393
27	0xbe8cec84	-0.27524197
28	0xbe11f788	-0.14254582
29	0xbec4774c	-0.38372266
30	0x3e25ca9c	0.1619057
31	0xbe06ffbe	-0.13183495
32	0xbe256eb6	-0.16155514
33	0x3de909d8	0.11378831
34	0xbe3fc294	-0.1872657
35	0x3d96b270	0.07358253
36	0xbec9da96	-0.3942458
37	0xbe60fb13	-0.21970777
38	0xbee20689	-0.4414561
39	0x3e825bf6	0.25460786
40	0x3e716669	0.23574223
41	0x3e3131c5	0.17304142
42	0xbe331d2f	-0.17491601
43	0x3de52165	0.1118801
44	0x3eb8e593	0.3611265
45	0x3e0767b4	0.13223153
46	0xbe49502a	-0.19659486
47	0xbe52650d	-0.2054636
48	0xbee136c3	-0.43987092
49	0x3e895ba2	0.26827723
50	0xbea5a7e5	-0.32354656
51	0xbe9f7ebe	-0.31151384
52	0x3dca95a8	0.09891826
53	0x3b409400	0.002938509
54	0xbe69de69	-0.22838749
55	0xbe962a72	-0.29329258
56	0xbe3ca1ea	-0.1842114
57	0xbebc26e3	-0.36748418
58	0xbe5c0255	-0.21485265
59	0xbe5f2014	-0.2178958
60	0xbe484dec	-0.19560975
61	0xbe4e7b75	-0.20164283
62	0x3e9ec630	0.3101058
63	0x3e9a29e9	0.301101
64	0x3e755b8d	0.23960705
65	0x3e9f35de	0.31095785
66	0x3eca1f94	0.39477217
67	0x3e9f615b	0.31128964
68	0xbe1e0d74	-0.1543482
69	0xbebad9a7	-0.3649418
70	0x3e5405e0	0.20705366
71	0x3c6d8b49	0.01449854
72	0x3c8371c7	0.016045464
73	0xbe4c7688	-0.19967091
74	0x3ea5efbc	0.32409465
75	0x3e8cc8a3	0.27496824
76	0xbeb429e3	-0.35188207
77	0xbc1d994f	-0.009619071
78	0xbeb28979	-0.34870508
79	0xbd4a7820	-0.049430966
80	0xbda53a3e	-0.080677494
81	0xbe71d44b	-0.2361614
82	0xbdd6f68b	-0.10496243
83	0x3d93ea54	0.07222429
84	0x3e2008b3	0.15628318
85	0x3eca57b1	0.39520028
86	0xbe92d481	-0.28677753
87	0x3ea46ea4	0.32115662
88	0x3ec1fc93	0.3788801
89	0x3d9cbe67	0.07653504
90	0x3ed64ca6	0.41855353
91	0x3e9c52c9	0.3053191
92	0x3d497426	0.049183033
93	0xbeaad1e0	-0.33363247
94	0x3d0bdc22	0.034145482
95	0x3e2c36d0	0.16817784
96	0x3eb7e08e	0.3591351
97	0xbee3e86c	-0.4451326
98	0xbeb93c17	-0.36178657
99	0xbe8caec1	-0.27477077
100	0x3ccf3d41	0.025297763
101	0x3ea7068b	0.3262218
102	0xbe4ea2ae	-0.20179245
103	0x3e9937f9	0.29925516
104	0x3e0df039	0.13861169
105	0x3d706d20	0.05869782
106	0x3e86b33e	0.26308626
107	0xbeb1df98	-0.347409
108	0x3db43e38	0.0880093
109	0xbe45a6e4	-0.19301945
110	0x3e10e66f	0.14150403
111	0xbd810641	-0.06300021
112	0xbef05978	-0.4694326
113	0x3ca5e74e	0.020251896
114	0xbea46d64	-0.32114708
115	0xbe409728	-0.18807662
116	0x3e790cd3	0.24321298
117	0xbbac3c76	-0.005256231
118	0x3e8c4875	0.2739903
119	0x3eb2b213	0.34901485
120	0x3e918250	0.28419733
121	0xbe3583ba	-0.17726031
122	0xbe352078	-0.17688167
123	0xbe86854c	-0.26273572
124	0xbd14b22a	-0.036302723
125	0xbeb6f066	-0.35730284
126	0xbc71d593	-0.014760393
127	0x3e2bb3de	0.16767833
128	0xbe03a7d2	-0.12856987
129	0xbeaf8f68	-0.34289098
130	0x3ea6aaca	0.32552177
131	0x3eb50d81	0.35361865
132	0x3ecab0cd	0.39588013
133	0xbdf1c65c	-0.11805412
134	0xbe94f090	-0.29089785
135	0xbd390b36	-0.045176707
136	0x3edbaf0c	0.42906988
137	0x3e8b80ea	0.2724679
138	0xbe3f5c14	-0.18687469
139	0x3e829638	0.25505233
140	0x3e6f8bc4	0.2339316
141	0xbe399966	-0.18124923
142	0xbca6bf00	-0.020354748
143	0x3ea52e1e	0.32261747
144	0xbee1f7e3	-0.44134435
145	0x3ea8ac25	0.32943836
146	0x3dd009ce	0.1015812
147	0x3e8f8dc9	0.2803786
148	0x3eadd131	0.33948663
149	0x3dcfa808	0.10139471
150	0x3eca469d	0.39507
151	0x3eda7d20	0.42673588
152	0x3ea33ea9	0.31883743
153	0x3e8b69a6	0.2722904
154	0xbeb0575a	-0.34441644
155	0x3cd5ec90	0.026113778
156	0xbec79688	-0.38982034
157	0xbe951022	-0.2911387
158	0x3eaa4b96	0.33260792
159	0xbed3ea8a	-0.41389877
160	0xbe1793f4	-0.14802533
161	0x3d80baa8	0.06285602
162	0xbed32f95	-0.4124724
163	0x3e8315b6	0.25602502
164	0xbe7cc670	-0.24685073
165	0xbd195c9a	-0.037441827
166	0x3e059ecf	0.13048862
167	0x3dd2a509	0.10285384
168	0xbed1dc09	-0.40988186
169	0xbed16885	-0.40900055
170	0xbeaa79d4	-0.33296072
171	0xbebf18ff	-0.37323758
172	0x3ea4f512	0.32218224
173	0xbec0188b	-0.37518725
174	0xbed77b3f	-0.42086217
175	0x3e345e46	0.17614087
176	0x3ec3c61c	0.38237083
177	0x3ecdb302	0.40175635
178	0x3dca2cb3	0.09871807
179	0x3e718016	0.23584017
180	0x3d303199	0.04301605
181	0xbeab1361	-0.33413222
182	0xbe5c7bf0	-0.21531653
183	0xbe672d3f	-0.22575854
184	0x3ea6c690	0.32573366
185	0xbcde25a8	-0.027117565
186	0xbed4d859	-0.4157131
187	0xbe98b6f1	-0.29827073
188	0x3eb7ba41	0.35884288
189	0x3dcd4484	0.10022834
190	0x3d20342d	0.03911226
191	0x3cf9bacb	0.030484578
192	0x3e8627cb	0.26202235
193	0x3e8bfe3a	0.27342397
194	0xbddf6cfe	-0.109094605
195	0x3ed21bc2	0.41036803
196	0xbd2adddf	-0.0417155
197	0xbd99607c	-0.07489106
198	0xbd3c3f1d	-0.045958627
199	0xbe154d00	-0.14580154
200	0x3d73bcac	0.059506103
201	0x3e898cc3	0.26865205
202	0x3eb52050	0.35376215
203	0xbcc20014	-0.023681678
204	0xbed070d9	-0.40711096
205	0xbdb87bda	-0.09007998
206	0x3ec474f5	0.3837048
207	0x3e453c8e	0.19261381
208	0xbb079eb3	-0.0020693957
209	0xbc553f7f	-0.013015627
210	0x3e0358d3	0.12826853
211	0x3e8608db	0.2617863
212	0x3e8e0425	0.27737537
213	0xbe831f7f	-0.25609967
214	0xbe7226a2	-0.2364755
215	0xbe856b3a	-0.2605837
216	0xbe1d8700	-0.1538353
217	0x3dc9461d	0.09827826
218	0x3dca7dbd	0.09887264
219	0xbe6e0826	-0.23245296
220	0x3e6ac415	0.22926362
221	0x3d5ee2c5	0.054415483
222	0xbe9b2542	-0.30301863
223	0x3e7f6aef	0.24943136
224	0x3e0e2730	0.13882136
225	0x3eeba86f	0.46026942
226	0xbed99862	-0.4249907
227	0x3e539135	0.20660861
228	0xbbe267c0	-0.0069093406
229	0x3eb94ecc	0.3619293
230	0x3e255973	0.16147403
231	0x3e8bd54f	0.2731118
232	0x3e885dff	0.26634213
233	0x3e52a6a0	0.20571375
234	0x3ebe75f4	0.37199366
235	0xbe933459	-0.28750876
236	0x3da37ed0	0.07983172
237	0xbec21f8e	-0.379147
238	0x3e77f170	0.24213195
239	0xbe2016aa	-0.15633646
240	0x3e079e9f	0.13244103
241	0xbd56d13d	-0.05244564
242	0x3e792acc	0.24332732
243	0x3d37c847	0.044868734
244	0x3ddca83f	0.10774278
245	0x3e6b1626	0.22957668
246	0x3eaeb669	0.34123543
247	0xbe5ef48f	-0.21772979
248	0x3e1ea97e	0.15494344
249	0x3ebca68f	0.36845824
250	0x3e8d1d8c	0.27561605
251	0x3e895b18	0.26827312
252	0xbe05af15	-0.1305507
253	0xbed150b1	-0.40881875
254	0x3e151b15	0.14561112
255	0x3ed33ba5	0.41256443

layer1.bias f4 [64]
0	0xbe90eb42	-0.28304487
1	0xbe92d7be	-0.28680223
2	0xbe3bad3d	-0.18327804
3	0xbde54464	-0.11194685
4	0xbc5247c0	-0.012834489
5	0xbedd382c	-0.43206918
6	0xbe020f20	-0.12701082
7	0xbe3c2cec	-0.18376511
8	0xbc9ecf9c	-0.019386105
9	0xbe9ebdb2	-0.310041
10	0xbdc11e7c	-0.094296426
11	0x3cf35660	0.029704273
12	0x3ea25d4e	0.3171181
13	0xbe401afb	-0.18760292
14	0xbcaa5e45	-0.020796904
15	0x3d242af9	0.040080044
16	0x3d4839c7	0.048883226
17	0xbedf1ad2	-0.4357515
18	0xbe5810bb	-0.21100132
19	0xbe9e566c	-0.3092531
20	0x3ec5703e	0.38562196
21	0xbec4da5b	-0.38447842
22	0x3e2fea94	0.17179328
23	0xbeb7adef	-0.35874888
24	0x3ea331e5	0.31874004
25	0x3e9a371d	0.30120173
26	0x3e4a05fa	0.19728842
27	0x3cac2fa4	0.02101881
28	0xbe245f14	-0.16051894
29	0x3c22e542	0.009942355
30	0x3d20d228	0.03926292
31	0xbe4d6f82	-0.20062068
32	0xbe86ad08	-0.26303887
33	0x3da57386	0.08078675
34	0xbe870592	-0.26371437
35	0xbe1b4480	-0.1516285
36	0x3ecf44eb	0.40482268
37	0x3e47f89f	0.19528435
38	0x3ec1bcec	0.37839448
39	0x3dbb45d6	0.091441795
40	0x3e15b503	0.14619832
41	0x3e103888	0.14084065
42	0xbe397a35	-0.18113025
43	0x3cd73f47	0.02627529
44	0x3ebb4b6d	0.36580983
45	0x3eb532f5	0.3539044
46	0xbe987185	-0.2977411
47	0xbdd1a5cc	-0.10236701
48	0x3e711228	0.23542082
49	0x3d09451d	0.033513177
50	0xbe1f05d2	-0.15529564
51	0x3ec6532e	0.38735336
52	0x3e4b75fc	0.19869226
53	0xbe9ff841	-0.3124409
54	0x3aa2eeda	0.0012430802
55	0xbd5b749d	-0.053578008
56	0x3d350751	0.04419643
57	0x3e08297f	0.1329708
58	0xbddb0920	-0.106951
59	0x3e9d92ac	0.30775964
60	0x3e901447	0.2814047
61	0xbda75fc0	-0.0817256
62	0xbdc42fe0	-0.09579444
63	0xbe6fbaea	-0.23411146

layer2.weight f4 [32, 64]
0	0xbe3c7608	-0.184044
1	0x3cd91af0	0.026502103
2	0x3db32d2a	0.08748849
3	0x3e1e3fc9	0.1545402
4	0xbdc12764	-0.09431341
5	0xbdcac1ba	-0.09900232
6	0x3db92744	0.090406924
7	0xbd382638	-0.044958323
8	0xbdacb0d1	-0.084321626
9	0xbd89aab8	-0.06722015
10	0xbc23ee60	-0.0100055635
11	0x3c9e28d0	0.01930657
12	0x3d8cf2fb	0.06882282
13	0x3cf8a110	0.030350238
14	0xbce0cb22	-0.027440611
15	0xbd121e9b	-0.03567372
16	0x3d799a2f	0.060938057
17	0xbbb31054	-0.005464593
18	0x3cbb9bdc	0.022901468
19	0x3dc7b1e2	0.09750725
20	0x3d09cdee	0.033643655
21	0xbd330f28	-0.043715626
22	0x3cafc737	0.021457298
23	0xbd40a578	-0.047032803
24	0x3cdeeafc	0.027211659
25	0x3bca3ba9	0.006171663
26	0x3d9bf572	0.07615174
27	0x3dbfb99b	0.09361573
28	0xbd0167b8	-0.031593055
29	0x3dba9c63	0.0911186
30	0x3e28accb	0.16472165
31	0xbd9ac1fc	-0.07556531
32	0x3d00be00	0.031431198
33	0xbc28dd73	-0.010306704
34	0x3de2ced4	0.110746056
35	0xbdbf04db	-0.09327098
36	0xbd0a5102	-0.03376866
37	0xbc98a5d1	-0.018633755
38	0x3dde68d5	0.10859839
39	0x3e40968b	0.18807428
40	0x3d4a7d83	0.049436104
41	0xbd933bba	-0.07189126
42	0x3bbd1141	0.005769879
43	0x3d43a480	0.0477643
44	0x3e0eb71e	0.13937041
45	0xbd854772	-0.06507768
46	0x3d87a237	0.06622737
47	0xbccccde8	-0.025000528
48	0x3d98e1d6	0.0746495
49	0x3d936e0e	0.07198726
50	0xbd03d1e4	-0.03218259
51	0x3df24404	0.11829379
52	0xbd4141c4	-0.04718186
53	0x3e0cac87	0.13737689
54	0xbd9eb5ba	-0.07749505
55	0xbcd447a1	-0.025913062
56	0xbca68722	-0.020328108
57	0x3daad682	0.08341695
58	0xbdfa0d0c	-0.1220952
59	0xbc9314c7	-0.017954243
60	0xbdca4e97	-0.09878271
61	0x3d2fa4c4	0.042881742
62	0x3dfcac2c	0.12337527
63	0x3e880062	0.26562792
64	0x3ccd01a7	0.025025202
65	0xbccffc88	-0.025388971
66	0x3dca3931	0.0987419
67	0x3dcdace1	0.1004274
68	0xbde831d4	-0.11337629
69	0xbdf1d76c	-0.118086666
70	0x3d23fc2c	0.04003541
71	0x3d39bfc4	0.045348898
72	0x3dfdb8c8	0.1238876
73	0x3cfa4c58	0.030553982
74	0xbd4da984	-0.05021049
75	0xbdaf1c78	-0.08550352
76	0xbd186e36	-0.03721448
77	0x3d1e79c0	0.03869033
78	0xbcf67bb2	-0.03008828
79	0xbd8f7a24	-0.07005718
80	0xbd1d93c2	-0.03847099
81	0xbc1a8b1a	-0.009432578
82	0xbd10543b	-0.03523658
83	0x3d1b1ad0	0.037867367
84	0x3d447418	0.047962278
85	0x3d9680d2	0.07348789
86	0x3d3bc0d6	0.0458382
87	0xbc8b6efb	-0.017020693
88	0x3ce3d743	0.027812606
89	0xbdc03130	-0.09384382
90	0xb9ce45c5	-0.00039343364
91	0x3bc4f350	0.0060104504
92	0xbc93f4b8	-0.018061027
93	0x3dd59ae4	0.10429934
94	0xbc17af11	-0.009258048
95	0x3db66910	0.08906758
96	0x3ac1d480	0.0014788061
97	0xbd047cd0	-0.032345593
98	0x3d754fc4	0.059890524
99	0xbdd80da9	-0.105494805
100	0x3d8bd5c3	0.06827881
101	0x3e18aaae	0.14908859
102	0x3ccc1a85	0.02491499
103	0xbc8d326b	-0.017235955
104	0xbd3ba77a	-0.045814015
105	0xbb80d881	-0.0039320593
106	0x3dd95d7a	0.10613532
107	0x3e0bdf64	0.13659436
108	0x3d0f7e16	0.035032354
109	0x3dbbe415	0.091743626
110	0xbd848c46	-0.064720675
111	0x3d25b314	0.040453985
112	0xbc9046a0	-0.017611802
113	0xbdb96fd8	-0.090545356
114	0xbd8accf5	-0.06777374
115	0x3da7bf65	0.081908025
116	0x3db0d544	0.08634427
117	0xbcab80c4	-0.020935424
118	0xbcfbc7b0	-0.030734867
119	0x3cee73b1	0.0291079
120	0xbdc38498	-0.095467746
121	0x3d7adb45	0.061244268
122	0xbbcd82e0	-0.006271705
123	0xbd90bba9	-0.07067043
124	0x3dfed9fb	0.1244392
125	0x3dec8598	0.115489185
126	0xbd0c886d	-0.034309793
127	0xbc8667a1	-0.016406836
128	0x3e0c4e01	0.13701631
129	0xbda5be5c	-0.08092949
130	0xbd692faf	-0.05693024
131	0xbdf2c9e9	-0.118549176
132	0xbd323494	-0.043507174
133	0xbddc55f4	-0.10758582
134	0x3c07b890	0.008283749
135	0xbde5ced0	-0.11221087
136	0xbd8f1f24	-0.069883615
137	0x3d057fb4	0.03259249
138	0xbd49f0c4	-0.049301878
139	0x3bb375a0	0.0054766685
140	0x3d17e60f	0.037084635
141	0x3d1f08a7	0.03882661
142	0xbd808bc2	-0.06276657
143	0x3e072816	0.13198885
144	0xbd981303	-0.07425501
145	0xbc84198c	-0.016125463
146	0xbc98e1e1	-0.018662395
147	0xbd209d24	-0.03921236
148	0xbcbf2794	-0.023334302
149	0x3d321c9c	0.043484315
150	0xbdf3ea66	-0.11909942
151	0xbe023332	-0.12714842
152	0xbccaa251	-0.024735602
153	0x3d964a37	0.07338374
154	0xbc77721a	-0.0151028875
155	0xbde995af	-0.11405503
156	0xbcdc1960	-0.026867568
157	0x3dd54535	0.10413591
158	0x3d059288	0.032610446
159	0xbdc5c6d0	-0.09657061
160	0x3dde9400	0.108680725
161	0xbc133106	-0.008983856
162	0x3de4902e	0.111603126
163	0x3d5a74d3	0.05333407
164	0x3d989e4a	0.07452066
165	0x3e395e0b	0.18102281
166	0x3d916e43	0.07101109
167	0x3d323e59	0.04351649
168	0xbd8dd9e1	-0.06926323
169	0xbde666c0	-0.11250067
170	0xbd57fc92	-0.052731104
171	0x3dbcd774	0.09220782
172	0xbceb7f4c	-0.028747223
173	0xbc4d19af	-0.0125183305
174	0xb914322c	-0.0001413307
175	0xbc89bd88	-0.016814008
176	0xba280c26	-0.00064105017
177	0x3bd336b6	0.006445731
178	0xbe3f11c0	-0.18659115
179	0xbb7f9d43	-0.0039003647
180	0x3cd6eb32	0.026235197
181	0x3decf747	0.11570602
182	0x3d8681e3	0.06567743
183	0xbd75bfb5	-0.05999728
184	0xbd01b699	-0.03166828
185	0x3df81ea2	0.12115218
186	0x3dffb03c	0.12484786
187	0x3d6fe59f	0.058568593
188	0x3ce1a13c	0.027542703
189	0xbc7bee50	-0.015376642
190	0xbd237def	-0.03991502
191	0xbe6e5cfd	-0.2327766
192	0x3dd95b3c	0.10613105
193	0x3da18480	0.078866005
194	0xbcc1aa88	-0.023640886
195	0xbd4175a0	-0.047231317
196	0x3c19da40	0.009390414
197	0xbd918934	-0.071062475
198	0xbde86c52	-0.113487855
199	0xbc9cbe00	-0.019133568
200	0x3cebb3e0	0.028772295
201	0xbdc597ba	-0.0964808
202	0x3b9e31c0	0.004827708
203	0x3cbebac8	0.023282424
204	0xbde3e11e	-0.11126922
205	0x3dffdb82	0.1249304
206	0x3ddbd24c	0.1073347
207	0xbde84ec4	-0.11343148
208	0x3b81a0e0	0.0039559454
209	0x3dbd42da	0.092412665
210	0xbde6448c	-0.11243543
211	0xbda19a78	-0.07890791
212	0x3c84d620	0.016215384
213	0x3df0f72a	0.11765893
214	0x3cece040	0.028915524
215	0xbdbbda94	-0.0917255
216	0xbd53c2a8	-0.05169931
217	0x3db9b5cc	0.09067878
218	0x3d8804d0	0.06641543
219	0x3c57e9b0	0.013178274
220	0xbddbd786	-0.10734467
221	0xbdbf1d50	-0.09331763
222	0x3ce89c50	0.028394848
223	0xbd3f5850	-0.04671508
224	0xbdcf8ea4	-0.101346284
225	0x3c95b1f8	0.018273339
226	0x3c422db0	0.011851713
227	0xbdfc92dc	-0.12332699
228	0x3dc1d7d4	0.09464994
229	0x3cc19180	0.02362895
230	0xbd01d44c	-0.031696603
231	0xbd3960e4	-0.045258418
232	0xbdd340ce	-0.10315095
233	0x39da9e00	0.0004169792
234	0x3de6c532	0.11268081
235	0x3da9f646	0.08298926
236	0x3d41ae50	0.047285378
237	0x3a386400	0.0007033944
238	0xbc81eaf8	-0.015859112
239	0x3d524710	0.0513373
240	0xbd643520	-0.055714726
241	0xbdef3616	-0.11680238
242	0xbd3374a4	-0.04381241
243	0x3d9fc6ae	0.07801567
244	0xbbf47360	-0.007460043
245	0x3bfa9f20	0.0076483637
246	0x3d82e5cc	0.063914865
247	0x3d8c2c06	0.06844334
248	0xbd94680a	-0.072464064
249	0x3d0e4c50	0.034740746
250	0x3c79dd60	0.015250534
251	0xbdfa672e	-0.12226711
252	0xbdbfba14	-0.093616635
253	0x3d4b1eb4	0.049589828
254	0xbc977f18	-0.01849322
255	0xbd42e860	-0.04758489

layer2.bias f4 [32]
0	0x3dc4670b	0.095899664
1	0xbd1f397e	-0.03887319
2	0x3df33b62	0.11876561
3	0x3ced79b0	0.02898869
4	0xba15a784	-0.00057088607
5	0x3dc8d280	0.09805775
6	0xbd071398	-0.03297767
7	0xbe0ab997	-0.1354736
8	0xbc5a6362	-0.013329359
9	0xbcbf4ab6	-0.023351055
10	0x3d90270f	0.070387
11	0xbd4f2de0	-0.05058086
12	0xbd87e1b8	-0.06634849
13	0xbd1769b9	-0.03696606
14	0x3cfe62d3	0.031052982
15	0xbdca2d2d	-0.09871898
16	0xbbb2f021	-0.0054607545
17	0xbdc705d0	-0.097179055
18	0x3e000566	0.1250206
19	0xbdf5ed1c	-0.12008116
20	0xbcc656d6	-0.024211328
21	0xbd2aac84	-0.04166843
22	0xbd3e9649	-0.04653004
23	0xbafbe2b1	-0.001921734
24	0xbdd8db16	-0.10588662
25	0xbe0c248c	-0.13685817
26	0xbc49a466	-0.012307262
27	0xbd09cc18	-0.033641905
28	0xbd78b210	-0.06071669
29	0x3e0e4e6c	0.13897103
30	0x3dc4221f	0.095768206
31	0xbdd0a3e2	-0.10187508

layer3.weight f4 [16, 32]
0	0x3e4df06c	0.20111245
1	0xbdaad86f	-0.08342063
2	0xbe1ad468	-0.15120089
3	0xbded1fd0	-0.115783334
4	0x3d3d98fb	0.04628847
5	0x3de45c85	0.11150459
6	0xbdc85dd3	-0.097835205
7	0x3daa69ca	0.08320959
8	0xbcdd7c65	-0.027036855
9	0x3da91475	0.08255855
10	0xbdec8281	-0.11548329
11	0x3c127ea5	0.008941327
12	0x3db95d92	0.0905105
13	0x3da364c8	0.07978207
14	0x3dd097fa	0.10185237
15	0x3d9ed9cb	0.077563845
16	0xbd8bb4d2	-0.06821598
17	0xbd3c7318	-0.0460082
18	0xbdd2caa2	-0.102925554
19	0xbdc91fb7	-0.09820502
20	0x3e3d64e6	0.18495521
21	0x3e0c831b	0.13721888
22	0x3dc2a1ca	0.09503515
23	0xbdf98064	-0.12182692
24	0x3e07a293	0.13245611
25	0x3ccb0ff5	0.024787882
26	0xbd6be8d3	-0.057595085
27	0x3ca7cdc0	0.020483851
28	0x3e30d71b	0.17269556
29	0x3d499abd	0.049219836
30	0xbddcf467	-0.107888035
31	0x3ddff25f	0.109349005
32	0x3d662ff6	0.056198083
33	0x3d7c5348	0.06160286
34	0xbdeb1d5c	-0.11480209
35	0xbdd24a7b	-0.10268112
36	0xbe12466b	-0.14284675
37	0xbc96c724	-0.018405505
38	0x3d01c6cb	0.031683724
39	0xbd200d4a	-0.039075173
40	0xbe20065d	-0.15627427
41	0x3db1081a	0.086441234
42	0x3a77841b	0.00094419875
43	0x3d95c55a	0.073130324
44	0x3d45b960	0.04827249
45	0xbe301c1e	-0.17198226
46	0x3d96b2e1	0.07358337
47	0xbc959c30	-0.018262953
48	0x3e0da1af	0.13831209
49	0x3e2c741d	0.16841169
50	0xbd005e5e	-0.031339996
51	0x3db3834a	0.08765276
52	0x3d90cf51	0.070707925
53	0xbccd7698	-0.025080964
54	0xbd692fd3	-0.056930374
55	0x3d9dd889	0.077073164
56	0xbd2380f0	-0.039917886
57	0x3e26ba1e	0.16281936
58	0x3de95e1d	0.11394904
59	0x3d42b96c	0.047540113
60	0xbd9e023e	-0.077152714
61	0x3d8f5046	0.06997733
62	0x3de46c83	0.111535095
63	0x3ddf5356	0.10904567
64	0x3b1c1ec0	0.002382204
65	0xbe01b41b	-0.12666361
66	0xbde0c2dc	-0.109746665
67	0xbe2b3900	-0.16720963
68	0xbdca96e4	-0.09892061
69	0xbdb1bd1e	-0.08678649
70	0x3ded402e	0.11584507
71	0xbd7194b0	-0.05897969
72	0x3e142909	0.14468779
73	0xbd834eb8	-0.06411499
74	0x3e1293b9	0.14314164
75	0xbdfb6922	-0.12275912
76	0xbe03d7be	-0.12875268
77	0xbd8b5fca	-0.0680538
78	0x3e065fb1	0.13122441
79	0xbcf8b498	-0.030359551
80	0xbe2cb155	-0.16864522
81	0xbdc6b7b1	-0.09703005
82	0x3d951c7a	0.07280822
83	0x3deca996	0.115557835
84	0xbd53f0dc	-0.051743373
85	0x3ce07f08	0.027404323
86	0x3e272c93	0.16325597
87	0xbe09472c	-0.13406056
88	0x3df7cbbe	0.120994076
89	0xbda8172c	-0.08207545
90	0x3d03afc0	0.03215003
91	0xbd921b02	-0.071340576
92	0xbdb93788	-0.09043795
93	0xbd9a0309	-0.0752011
94	0x3e23bf33	0.15990905
95	0xbc276ef0	-0.010219321
96	0x3bfa4312	0.00763739
97	0x3e210b79	0.15727033
98	0xbd690027	-0.05688491
99	0x3b4679c0	0.003028497
100	0x3d857666	0.06516723
101	0xbd5ce9d1	-0.053933922
102	0xbcc383b6	-0.023866516
103	0x3da11c27	0.07866698
104	0x3e0778bf	0.13229655
105	0xbe265686	-0.16243944
106	0x3d57dfe9	0.05270377
107	0xbc07ea19	-0.008295559
108	0x3e172a63	0.14762263
109	0x3e148019	0.1450199
110	0xbdc9d9d6	-0.09856002
111	0x3d3e5719	0.04646978
112	0xbdbb7ac8	-0.09154278
113	0x3de3b1d6	0.11117904
114	0x3e10e2b8	0.14148986
115	0xbe073575	-0.13203986
116	0x3e4f522e	0.20246193
117	0x3c8ec618	0.017428443
118	0xbd191f47	-0.037383344
119	0xbdfc8b06	-0.12331204
120	0xbe077eb4	-0.13231927
121	0xbe0cd092	-0.13751438
122	0xbd8892fb	-0.06668659
123	0x3d8b25cc	0.067943186
124	0xbaaadd00	-0.0013035834
125	0xbd9f98e4	-0.077928334
126	0x3c324e8a	0.010882983
127	0x3daa933e	0.083288655
128	0xbe13b0bf	-0.14422892
129	0x3d77b688	0.06047681
130	0x3e209bc5	0.15684421
131	0xbcf757b0	-0.03019318
132	0xbdf9c457	-0.12195652
133	0xbe2fe157	-0.17175804
134	0xbb41e480	-0.002958566
135	0xbd53dd74	-0.051724866
136	0x3e32bc7d	0.17454715
137	0x3b05a900	0.0020394921
138	0x3d0df46c	0.034656927
139	0x3e2f337b	0.17109482
140	0xbdce2098	-0.100648105
141	0x3da82c9a	0.08211632
142	0x3dbd1f3a	0.092344716
143	0x3e1a7307	0.15082942
144	0xbe22241a	-0.15834084
145	0x3dd01f26	0.10162191
146	0x3d5a6498	0.05331859
147	0x3d57eb44	0.0527146
148	0x3c374c90	0.0111876875
149	0x3de7b796	0.11314313
150	0x3e2af949	0.16696657
151	0x3df2fa8a	0.11864193
152	0x3d5ce540	0.053929567
153	0xbe1360e7	-0.14392434
154	0xbdbf52e6	-0.093419835
155	0xbd16d0a4	-0.03682007
156	0x3d21421c	0.039369687
157	0x3d21008c	0.039307162
158	0x3d832ac2	0.0640464
159	0x3e0cd441	0.13752843
160	0x3ca07d60	0.019591033
161	0xbdf79710	-0.1208936
162	0x3d0399f4	0.032129243
163	0xbe1cef60	-0.1532569
164	0xbdfef258	-0.12448567
165	0x3d946c3a	0.07247205
166	0xbd09aa0c	-0.033609435
167	0x3ccd4650	0.025057942
168	0x3e1b8f95	0.15191491
169	0xbe0f7d87	-0.14012729
170	0xbdf7cb86	-0.12099366
171	0xbdbefc66	-0.09325485
172	0xbd324524	-0.04352297
173	0xbd95b218	-0.07309359
174	0xbd909759	-0.07060117
175	0x3d8aa000	0.06768799
176	0xbda7fb21	-0.08202196
177	0xbe2377df	-0.15963696
178	0xbddcf77b	-0.10789391
179	0xbbcb8d00	-0.006211877
180	0xbe182e05	-0.14861305
181	0x3e15c1d3	0.1462472
182	0xbdd63b8e	-0.10460578
183	0x3c01b1b0	0.007915899
184	0x3df95d32	0.12175979
185	0xbe2b603c	-0.16735929
186	0xbdf7dab9	-0.12102265
187	0xbc699c00	-0.014258385
188	0x3dca9c6e	0.09893118
189	0xbde1869b	-0.11012002
190	0xbd99acd0	-0.075036645
191	0xbde3ef78	-0.111296594
192	0x3a90f5a8	0.0011059539
193	0xbd2fc92e	-0.04291647
194	0x3cfac53c	0.030611627
195	0xbd0693a8	-0.03285566
196	0x3e1986fe	0.14992902
197	0x3ccdca16	0.025120776
198	0x3dbfc4c7	0.09363704
199	0x3e12efd2	0.14349297
200	0x3e3e000e	0.18554708
201	0xbe2cde08	-0.16881573
202	0xbd4347b8	-0.04767582
203	0x3d19185a	0.03737674
204	0x3d8776b6	0.06614439
205	0x3e3f2e83	0.18670087
206	0x3e2c797b	0.16843216
207	0x3e2d83c5	0.16944797
208	0xbdcdb513	-0.10044303
209	0x3e0a3c41	0.13499548
210	0x3e361109	0.17779936
211	0xbe055b90	-0.1302321
212	0xbd8d6059	-0.069031425
213	0x3ddb6d0a	0.10714157
214	0xbdf18d4e	-0.1179453
215	0xbe070561	-0.13185646
216	0xbdfe9b3a	-0.12431951
217	0x3d251ae0	0.040308833
218	0x3df95b82	0.12175657
219	0x3ddd9e96	0.108212635
220	0x3d05f538	0.032704562
221	0x3d5323f2	0.051547952
222	0xbd6f2afc	-0.058390602
223	0x3d7f60c4	0.062348142
224	0x3e0726e1	0.13198425
225	0xbcf23282	-0.0295651
226	0xbe4b5461	-0.19856407
227	0xbd5a8af8	-0.053355187
228	0x3df27302	0.11838342
229	0x3d7479c5	0.05968644
230	0xbdf9e932	-0.122026816
231	0x3d927979	0.07152075
232	0x3de56e1e	0.11202644
233	0xbde62a4f	-0.112385385
234	0x3dabea0d	0.08394251
235	0xbdbbc74a	-0.09168871
236	0x3daa89ce	0.083270654
237	0xbd7414b4	-0.059590057
238	0x3e0f414e	0.13989756
239	0x3d385a5e	0.045008056
240	0x3ddb9fcb	0.107238375
241	0x3deab6c2	0.114606395
242	0xbe176dc3	-0.14787965
243	0xbd89bfe4	-0.06726053
244	0x3d068982	0.03284598
245	0x3da9282a	0.08259614
246	0x3d5c9033	0.053848457
247	0x3dbaab95	0.09114758
248	0xbe201f25	-0.1563688
249	0xbd8c53e0	-0.068519354
250	0x3e0e89ab	0.13919704
251	0x3de5fb5e	0.11229585
252	0xbe1f7b20	-0.15574312
253	0xbe3ae6e6	-0.18252143
254	0x3e02b0ce	0.12762758
255	0x3d929a61	0.07158352

layer3.bias f4 [16]
0	0x3e383e69	0.17992558
1	0xbd56b38c	-0.052417323
2	0xbd8b71ec	-0.06808838
3	0x3de54723	0.11195209
4	0xbe2fc2a8	-0.17164099
5	0xbe064f94	-0.13116294
6	0xbdafd404	-0.08585361
7	0xbd1586ce	-0.036505513
8	0x3e320dcd	0.17388077
9	0x3d5a0307	0.053225543
10	0x3de22f75	0.11044208
11	0x3d52582f	0.05135363
12	0x3da56b4a	0.080771044
13	0xbc8e7ad8	-0.01739256
14	0x3d398b1e	0.045298688
15	0xbe25c43d	-0.1618814

output.weight f4 [1, 16]
0	0x3e651fb9	0.22375382
1	0xbbeee260	-0.0072901696
2	0x3dcfabd0	0.101401925
3	0x3e7edbef	0.24888586
4	0xbe18c1c0	-0.1491766
5	0xbdcc2b5c	-0.09969208
6	0x3e026458	0.1273359
7	0xbe4e0a8a	-0.20121208
8	0x3ded5077	0.11587613
9	0xbe44789e	-0.19186637
10	0x3e26076c	0.16213769
11	0xbd51f593	-0.05125959
12	0xbdbfd11b	-0.093660556
13	0x3beb3341	0.007177741
14	0xbe67e275	-0.2264498
15	0x3e0984d0	0.1342957
